…
    value: deque([], maxlen=100)
ep_success_buffer:
    value: deque([], maxlen=100)
gae_lambda:
    value: 0.95
gamma:
    value: 0.99
learning_rate:
    value: 0.0003
lr_schedule:
    value: <function get_schedule_fn.<locals>.<lambda> at 0x7fd3da33d940>
max_grad_norm:
    value: 0.5
n_envs:
    value: 1
n_epochs:
    value: 10
n_steps:
    value: 2048
normalize_advantage:
    value: "True"
num_timesteps:
    value: 0
observation_space:
    value: Box(-50.0, 50.0, (9,), float32)
policy:
    value: |-
        CustomMLPPolicy(
          (features_extractor): FeatureExtractor(
            (net): Sequential(
              (0): Linear(in_features=9, out_features=32, bias=True)
              (1): ReLU()
              (2): Linear(in_features=32, out_features=16, bias=True)
              (3): ReLU()
              (4): Linear(in_features=16, out_features=8, bias=True)
              (5): ReLU()
            )
          )
          (pi_features_extractor): FeatureExtractor(
            (net): Sequential(
              (0): Linear(in_features=9, out_features=32, bias=True)
              (1): ReLU()
              (2): Linear(in_features=32, out_features=16, bias=True)
              (3): ReLU()
              (4): Linear(in_features=16, out_features=8, bias=True)
              (5): ReLU()
            )
          )
          (vf_features_extractor): FeatureExtractor(
            (net): Sequential(
              (0): Linear(in_features=9, out_features=32, bias=True)
              (1): ReLU()
              (2): Linear(in_features=32, out_features=16, bias=True)
              (3): ReLU()
              (4): Linear(in_features=16, out_features=8, bias=True)
              (5): ReLU()
            )
          )
          (mlp_extractor): IdentityMLPExtractor()
          (action_net): Linear(in_features=8, out_features=3, bias=True)
          (value_net): Linear(in_features=8, out_features=1, bias=True)
        )
policy_class:
    value: <class '__main__.CustomMLPPolicy'>
policy_kwargs:
    value: '{}'
policy_type:
    value: PPO-shared
rollout_buffer:
    value: <stable_baselines3.common.buffers.RolloutBuffer object at 0x7fd3dbd2be30>
rollout_buffer_class:
    value: <class 'stable_baselines3.common.buffers.RolloutBuffer'>
rollout_buffer_kwargs:
    value: '{}'
…
