…
d_norm': 0.5, 'rollout_buffer_class': "<class 'stable_baselines3.common.buffers.RolloutBuffer'>", 'rollout_buffer_kwargs': '{}', 'batch_size': 64, 'n_epochs': 10, 'clip_range': '<function get_schedule_fn.<locals>.<lambda> at 0x7f8fc878bd80>', 'clip_range_vf': 'None', 'normalize_advantage': 'True', 'target_kl': 'None', 'lr_schedule': '<function get_schedule_fn.<locals>.<lambda> at 0x7f8fdc1f67a0>', 'rollout_buffer': '<stable_baselines3.common.buffers.RolloutBuffer object at 0x7f8fdda64200>', 'policy': 'CustomMLPPolicy(\n  (features_extractor): FeatureExtractor(\n    (net): Sequential(\n      (0): Linear(in_features=9, out_features=32, bias=True)\n      (1): ReLU()\n      (2): Linear(in_features=32, out_features=16, bias=True)\n      (3): ReLU()\n      (4): Linear(in_features=16, out_features=8, bias=True)\n      (5): ReLU()\n    )\n  )\n  (pi_features_extractor): FeatureExtractor(\n    (net): Sequential(\n      (0): Linear(in_features=9, out_features=32, bias=True)\n      (1): ReLU()\n      (2): Linear(in_features=32, out_features=16, bias=True)\n      (3): ReLU()\n      (4): Linear(in_features=16, out_features=8, bias=True)\n      (5): ReLU()\n    )\n  )\n  (vf_features_extractor): FeatureExtractor(\n    (net): Sequential(\n      (0): Linear(in_features=9, out_features=32, bias=True)\n      (1): ReLU()\n      (2): Linear(in_features=32, out_features=16, bias=True)\n      (3): ReLU()\n      (4): Linear(in_features=16, out_features=8, bias=True)\n      (5): ReLU()\n    )\n  )\n  (mlp_extractor): IdentityMLPExtractor()\n  (action_net): Linear(in_features=8, out_features=3, bias=True)\n  (value_net): Linear(in_features=8, out_features=1, bias=True)\n)', '_logger': '<stable_baselines3.common.logger.Logger object at 0x7f8ff8d50080>'}
2025-04-07 21:47:16,585 INFO    MsgRouterThr:59353 [mailbox.py:close():129] [no run ID] Closing mailbox, abandoning 1 handles.
2025-04-07 21:47:16,720 ERROR   Thread-4  :59353 [redirect.py:_on_write():661] [no run ID] error in stdout callback
Traceback (most recent call last):
…
