…
d_norm': 0.5, 'rollout_buffer_class': "<class 'stable_baselines3.common.buffers.RolloutBuffer'>", 'rollout_buffer_kwargs': '{}', 'batch_size': 64, 'n_epochs': 10, 'clip_range': '<function get_schedule_fn.<locals>.<lambda> at 0x7fb2637fbd80>', 'clip_range_vf': 'None', 'normalize_advantage': 'True', 'target_kl': 'None', 'lr_schedule': '<function get_schedule_fn.<locals>.<lambda> at 0x7fb2a35a9580>', 'rollout_buffer': '<stable_baselines3.common.buffers.RolloutBuffer object at 0x7fb2a3a9c8f0>', 'policy': 'CustomMLPPolicy(\n  (features_extractor): FeatureExtractor(\n    (net): Sequential(\n      (0): Linear(in_features=9, out_features=32, bias=True)\n      (1): ReLU()\n      (2): Linear(in_features=32, out_features=16, bias=True)\n      (3): ReLU()\n      (4): Linear(in_features=16, out_features=8, bias=True)\n      (5): ReLU()\n    )\n  )\n  (pi_features_extractor): FeatureExtractor(\n    (net): Sequential(\n      (0): Linear(in_features=9, out_features=32, bias=True)\n      (1): ReLU()\n      (2): Linear(in_features=32, out_features=16, bias=True)\n      (3): ReLU()\n      (4): Linear(in_features=16, out_features=8, bias=True)\n      (5): ReLU()\n    )\n  )\n  (vf_features_extractor): FeatureExtractor(\n    (net): Sequential(\n      (0): Linear(in_features=9, out_features=32, bias=True)\n      (1): ReLU()\n      (2): Linear(in_features=32, out_features=16, bias=True)\n      (3): ReLU()\n      (4): Linear(in_features=16, out_features=8, bias=True)\n      (5): ReLU()\n    )\n  )\n  (mlp_extractor): IdentityMLPExtractor()\n  (action_net): Linear(in_features=8, out_features=3, bias=True)\n  (value_net): Linear(in_features=8, out_features=1, bias=True)\n)', '_logger': '<stable_baselines3.common.logger.Logger object at 0x7fb263fd5b20>'}
2025-04-08 03:39:50,523 INFO    MsgRouterThr:70975 [mailbox.py:close():129] [no run ID] Closing mailbox, abandoning 1 handles.
